cross_entropy/agent_cartpole.pt (torch, 2255 bytes, 4 tensors)

net.0.weight f4 [16, 4]
000000 a8 6e 3e 3e 52 d0 6f bd d0 fc 6b 3f 4a c7 38 3e
       0.185969 -0.05854828 0.92182636 0.18044773
000010 cd 65 ee 3d 29 14 9d be aa 54 1e bf e0 82 4e bf
       0.11640511 -0.30679443 -0.6184794 -0.8066845
000020 11 3c 06 bd a5 63 0c be f2 41 b2 bf e7 1f 37 bf
       -0.032772128 -0.13709886 -1.3926375 -0.71533054
000030 a1 f6 97 3c 01 02 8a 3e 1e 61 42 3c 8d 9e 99 3e
       0.018550219 0.26954654 0.011863975 0.30003777
000040 b6 15 d3 3d bd 98 e5 3e 9d 84 b9 3f 4c 6d f6 3e
       0.103068754 0.44843093 1.4493595 0.48130262
000050 7d dc 88 3d c4 10 50 3e 55 5d 3f bf 4e 70 62 bf
       0.0668268 0.20318896 -0.7475179 -0.88452613
000060 96 34 19 3e 11 e8 d9 be 91 84 df 3e 6f 8f be be
       0.14961466 -0.42559865 0.43655828 -0.37218806
000070 b0 35 71 3d 50 a4 c0 bd 68 b6 f3 3d 70 c1 10 be
       0.05888909 -0.0940634 0.119000256 -0.1413629
000080 e6 9f bc be e5 eb 6b bd a3 e5 83 3f 09 31 26 3f
       -0.36840743 -0.057598013 1.0304455 0.6491857
000090 d8 79 6c 3d fa 84 3f 3f de 4b 7d 3f 2e f5 5f 3f
       0.057733387 0.7481228 0.9894389 0.8748349
0000a0 81 a1 b7 3e 8c 09 8f be 0b 57 b0 3e 86 87 11 3f
       0.35865405 -0.2793697 0.3444141 0.5684742
0000b0 47 4b d6 bc 18 da b3 be 25 c5 8f bf ed 3b 55 bf
       -0.026158942 -0.3512733 -1.1232039 -0.83294564
0000c0 eb ba 3d 3e 7d 89 3d 3e 7f e1 36 be f8 a1 2c be
       0.18528335 0.18509479 -0.17859457 -0.16858661
0000d0 05 d0 7b be 90 93 a8 3e dc 08 80 3f 3a 1f 98 3e
       -0.24591072 0.3292508 1.0002704 0.29711324
0000e0 10 4c 6d be 93 85 77 3e 6a 18 a6 bc 7e 41 a2 3e
       -0.23173547 0.24172048 -0.020275313 0.31690592
0000f0 d6 55 2d be 09 c8 cd 3d b5 b0 6c 3f 10 23 fc 3e
       -0.16927275 0.10047919 0.92457134 0.492455

net.0.bias f4 [16]
000000 41 e7 07 3e fb bf be 3e 8b 89 c6 3e a3 f0 51 be
       0.1327181 0.37255844 0.38776812 -0.20501952
000010 42 01 c6 3e 26 66 33 bc 34 1a b4 be d4 d7 88 be
       0.38672835 -0.010949647 -0.3517624 -0.26727164
000020 e6 c2 0b 3f 08 e8 09 3f 08 8f 87 3e 9a 75 b5 3e
       0.54594266 0.53869677 0.26476312 0.35441285
000030 a7 1a 57 be 09 12 e2 3e 47 43 ee be d2 7d 86 3e
       -0.21006261 0.44154385 -0.46535704 0.26267868

net.2.weight f4 [2, 16]
000000 2a aa 94 be 4e 29 1b 3f 29 8e 1e 3f 3b 55 11 be
       -0.29036075 0.606099 0.6193567 -0.14192669
000010 54 f6 4b bf 41 f1 e7 3e 28 99 6a 3d b4 df 42 be
       -0.7967274 0.4530125 0.057274967 -0.19030648
000020 0f 67 d8 bd bb 72 20 bf b1 1f 3a be 0d 29 10 3f
       -0.10566532 -0.62675065 -0.18176152 0.5631264
000030 d9 80 88 3d 8f 01 7c be 2c 63 5c be 9d d0 89 be
       0.06665201 -0.2460997 -0.21522206 -0.26916972
000040 5a c5 d1 bd 84 7f 23 bf 83 d3 96 be 11 6a 8d 3d
       -0.1024272 -0.6386645 -0.29458246 0.06904996
000050 6f 45 27 3f 9a f3 1d be 8e ab 1d 3e 3e b9 05 be
       0.6534032 -0.15424958 0.15397474 -0.13058946
000060 15 1c ad 3e 73 ea a4 3e ef ca 9c bb 2e 01 48 bf
       0.33810487 0.3221012 -0.0047849338 -0.781268
000070 ca f3 2c bc e8 64 81 3e 88 b3 23 be 57 97 bd bc
       -0.010556171 0.25272298 -0.15986454 -0.023143454

net.2.bias f4 [2]
000000 22 f0 eb bc 05 21 dd bd
       -0.028801028 -0.107973136
